src/Cnn.pt (torch, 91345 bytes, 20 tensors)

conv0.weight f4 [3, 3, 5, 5]
00000000: d3b1 84bd 4b42 ecbc e9eb ba3b ac93 063e
00000010: 2bce a83c f0fc e43d 42e0 aa3d e2bc bbbd
00000020: 625c 733d fa7e dcbd ee50 d5bd dcd4 d73c
00000030: fbd1 243d fde3 e43d cbfe 81bd 504d 30bd
00000040: 07d4 783d 43a8 18be 60f6 f13d b860 02be
00000050: e5b8 c6bc 629b 17bd 28e5 9abd e75b a73c
00000060: 5425 093e 1c4a 70bd 39f5 c7bd 51cc 79bd
00000070: 9161 23be c714 8e3d 9eb8 cfbd 917b f0bd
00000080: 6806 bbbd a7a8 963d 993e a53d da03 b43d
00000090: 77e2 373d 70c5 8dbd 4571 5fbd 7630 1a3d
000000a0: efe2 bb3d 4106 113d 5771 9bbd 3984 8cbd
000000b0: 7147 11be 9f94 893b 1c3d c8bd ca8b 10be
000000c0: 17de 003e 1c6b d9bd bedf ddbc 6d77 2c3d
000000d0: fbfa b53b c147 dcbd 8758 04be 1638 ce3d
000000e0: ba2a 7c3c 15f1 033e dccf 7dbd d01c 2e3d
000000f0: 7e94 6dbd 59d4 45bc e406 cbbd f36b 4a3d
00000100: 3d2d 333d 038c 03bd b5dc 27bd 83cd babd
00000110: c3c8 e93d c94c e1bd 96cd 323d 4500 71bd
00000120: f9bb 8bbd f23f c83c f21c 9fbd 7391 acbe
00000130: 0e98 96be e720 adbe bf4d 27be 8446 c1be
00000140: 0197 393f 9b1f bc3e 802e f13d e657 b43e
00000150: 2dcf f93e 850e debe 4159 32be 810d d33b
00000160: c35f c8bd 3260 f3bd c353 b63d 3e99 b33d
00000170: f70b 95be 5980 11be 1132 d63d 2833 5139
00000180: bdd2 5e3d 1f6f af3e a5f5 923c 5d40 15bd
00000190: 9c14 1b3e e817 9bbb f79a 2abd ad53 07bd
000001a0: 3d39 4bbd f912 abbd 2695 99bd bf84 363e
000001b0: 2d84 503e e41f 213d e9c5 823d 4cd8 163d
000001c0: 591f 69be 1477 06be 94f4 9abc 017b 1bbc
000001d0: e4d7 f1bc 6ce9 f83d 8406 2d3d d779 1a3e
000001e0: 6b50 e6bd 543f 84b9 e3e6 a7bd 3acc 36bd
000001f0: a4c1 f1bd 1f7b 4b3e 85da 973e f23a c43e
00000200: 35b9 593e 058e d13e f86e 11bf 4e72 69be
00000210: c646 86be 3f38 02bf 43c3 f1be d586 c33e
00000220: 46fc 413e a530 513e 0f53 833e ec17 2a3e
00000230: ff14 dbbd 89c3 a6bd ad4c 293e 1384 ba3d
00000240: 14fd 87be 9b41 c73d 1666 82bd 3cf0 89be
00000250: 4828 17bc 5049 0c3e 1afc 24be a51c 85be
00000260: c36c 6dbe 6692 e0be b87b a5be bbdf 913e
00000270: 0480 203e 5bca 413e 833d 663e cd97 fd3b
00000280: f914 ebbd 7b71 063e 4623 9a3d 9c2f b5bc
00000290: 2f9e 83bb a377 11be 2d60 11bd f3c1 c43b
000002a0: c713 9c3e d8a6 993d 44d8 183d 67fe 6b3e
000002b0: 48a7 913e 2823 0bbd eec9 473d b724 343e
000002c0: 6ecd 26bc 7070 ec3d 7e52 0f3e 6def 0a3e
000002d0: 0404 39be 4a88 c8bb 97da 95bd 23a6 78bd
000002e0: 2647 a23d 8021 a1bd f92c 5dbe 965c 083c
000002f0: 61e0 c9bd b800 68bc 7a40 813d 28fc 713e
00000300: c359 a2bc 21fc bfbc 0fdb 153d b5d7 5e3c
00000310: 619c 82bd 2736 28be a5f8 5cbd 8c2a 44bd
00000320: 4da6 9c3b e44a a03e 3a66 1d3e 1dc0 ac3e
00000330: 323a 733e 8657 2ebe d19b 4cbe 0a56 14be
00000340: 3888 67be 1bca 0bbe 8129 2b3e ce78 493d
00000350: d8da 44bd a9c7 bc3d d0d9 8abc 2faf ee3d
00000360: 6ffa 55be 28e8 f4bb 5d9a 8dbe 546b e5bd
00000370: 35b9 89bc 4f4c 16be d573 ecbd 3cf5 0a3e
00000380: 28f9 163c
-0.0647923 -0.028840205 0.005704392 0.1314227 0.020606121 0.111810565 0.08343555 -0.09166886
0.059414275 -0.10766406 -0.10415827 0.026346616 0.040239315 0.11176298 -0.06347426 -0.04304248
0.06074908 -0.14907937 0.118145704 -0.12732208 -0.024258086 -0.03701342 -0.07563239 0.020429565
0.13393146 -0.058664426 -0.097635694 -0.060985867 -0.15955187 0.06937557 -0.10142635 -0.117423184
-0.09132081 0.07356387 0.0806858 0.08789797 0.044893708 -0.06922424 -0.05455138 0.037643872
0.091741435 0.035406355 -0.07589977 -0.06861157 -0.14187409 0.004198625 -0.09777281 -0.14115825
0.1258472 -0.106161326 -0.027084228 0.04210608 0.005553601 -0.107558735 -0.12924396 0.10069291
0.015391046 0.12884934 -0.06196581 0.042507946 -0.05800294 -0.012074553 -0.09913424 0.049419355
0.043744314 -0.032115947 -0.040981967 -0.091212295 0.114152454 -0.11000974 0.043653093 -0.058838148
-0.06822962 0.024444554 -0.07769193 -0.3370472 -0.29412884 -0.33814165 -0.16338252 -0.37749112
0.7249604 0.36742863 0.11776447 0.3522331 0.48790875 -0.43370453 -0.1741686 0.006440819
-0.0978389 -0.11883582 0.08902695 0.08769463 -0.2911069 -0.14209117 0.10458768 0.0001995085
0.054400194 0.34264466 0.017939398 -0.036438335 0.1514458 -0.0047330745 -0.041651692 -0.033038784
-0.049615134 -0.08353228 -0.07499151 0.17824076 0.20362921 0.039337054 0.063854046 0.03682737
-0.22765864 -0.13131362 -0.018915452 -0.009489776 -0.02952189 0.12153897 0.042242542 0.1508554
-0.11245807 -0.00025224185 -0.08198335 -0.04462836 -0.11804512 0.19871186 0.29658905 0.38326222
0.21262057 0.40928665 -0.5680995 -0.2279751 -0.2622587 -0.50867075 -0.47219285 0.38188806
0.18943891 0.20428713 0.25649306 0.16610688 -0.10697364 -0.08142764 0.16533156 0.091072224
-0.2656027 0.0972931 -0.063671276 -0.26941097 -0.009225912 0.13699841 -0.16111794 -0.25998417
-0.2318602 -0.43861693 -0.32320952 0.28491005 0.15673834 0.18924849 0.22484402 0.0077390433
-0.114786096 0.13129227 0.07526259 -0.022117428 -0.0040166597 -0.14205794 -0.03549211 0.006004566
0.3048384 0.07502526 0.037315622 0.23046266 0.28447938 -0.033969074 0.04877656 0.1759213
-0.010180814 0.11544883 0.13996312 0.13567896 -0.18067938 -0.0061197625 -0.07317083 -0.060705315
0.07923727 -0.07867718 -0.21599187 0.008322855 -0.0985725 -0.014160328 0.06311126 0.23631346
-0.019818192 -0.023435654 0.036585864 0.013601233 -0.06377483 -0.16426907 -0.053948063 -0.04789214
0.004780567 0.31307137 0.15371028 0.3374032 0.23752668 -0.17025575 -0.19981314 -0.14485946
-0.22610557 -0.13651316 0.16715051 0.049187474 -0.04806027 0.0921777 -0.016949564 0.11654507
-0.20896314 -0.0074739642 -0.27656832 -0.11202112 -0.016811946 -0.14677547 -0.11545531 0.13570112
0.009214677

conv0.bias f4 [3]
00000000: c57e 08bd dfd0 753c 7742 4b3e
-0.03332402 0.015003412 0.19849573

conv1.weight f4 [30, 3, 5, 5]
00000000: b342 84b9 9c48 02b9 48eb 25b9 37ac 2e39
00000010: b0e5 f438 e21d c3b8 cd9d a5b7 7bc4 d2b7
00000020: 560b c439 b2ac 6139 5648 16b9 6cbb c9b8
00000030: ca5b 46bf 0d72 463f e0f5 9f38 987c 90b9
00000040: 3164 87b9 8615 f9b8 7b85 6b39 34aa d3b8
00000050: 53b8 b9b9 ac00 67b9 62c2 fcb7 c44a 8739
00000060: 0cd1 a8b8 7bad ea3c 343c ff3c 7e20 083d
00000070: dfb3 cc3c 24af 043d d5e1 8b3c 09ef 8f3c
00000080: 1873 493f e4b5 f53b f5c1 4f3c 456a 223c
00000090: 212d 443c 58ff 42bf bf78 ff3b 19b6 fd3b
000000a0: 044a 9fbc cab2 13bc 6d04 04bc 83e1 32bc
000000b0: cd05 84bc c9b8 bbbc 80c3 a2bc c6a8 b4bc
000000c0: dbf9 b4bc 2b80 a9bc be72 2a3d eb67 1e3d
000000d0: bc12 273c e75d a93b 2f51 d93c 0e7a ec3c
000000e0: 3b37 e03c df64 883b a7ef 81b9 a16f 7f3c
000000f0: e3ee 383c f667 493f 4be1 48bf db05 29bc
00000100: 96ab c53b 0b27 a0bc 6e4e 6abc 8804 13bd
00000110: 6252 22bd eb98 d8bc dbf6 ebbc 818a d6bc
00000120: 1d32 52bd 3c92 5dbd 06de 31bd fc91 54b9
00000130: b06a 8537 ad01 05b8 b319 7339 ad57 5e39
00000140: d555 beb9 0dbf 46b9 0796 73b9 7c17 3839
00000150: 01c5 8837 bfc5 42b9 bf66 2eb9 7463 46bf
00000160: cde2 3a39 c20b bb38 08bd 2fb9 b2c0 72b7
00000170: be44 463f db28 9139 514b 8f38 8e97 18b9
00000180: ef8b 0db8 0280 9fb8 4481 4a39 cd13 bf38
00000190: f316 c03d 82eb 8d3d b15a 8a3d 35cd 353d
000001a0: 078a 573d db79 833d 57ee 453d 914c e43c
000001b0: 3867 493f 5f75 0a3c d78f 633d f510 293d
000001c0: 1a96 3cbf ad9d 943c aa4c 7f3a 859b 38bd
000001d0: fd82 13bd 0cf5 0dbd cceb 10bd 1d32 75bd
000001e0: 8dd5 8abd c748 99bd 02a2 bfbd 8525 cdbd
000001f0: 9013 c6bd 08da 053e 3cac ec3d dadb bb3d
00000200: 5a76 c03d 7397 fd3d bd8a 923d 8e91 523f
00000210: 60fb fe3c ef38 463d 1968 903d f15a 9c3b
00000220: 0b79 2e3c cc80 4abf 3a19 84bc 67d2 cdba
00000230: eeda 74bd a198 45bd a7e1 92bd 30fb a4bd
00000240: 61b7 a3bd fb9f aebd 9ec0 a3bd 2028 d8bd
00000250: 4244 d6bd df9e dcbd eb82 fbb8 e3aa 4ab9
00000260: fde4 1437 dc75 5cb7 7431 c4b7 393b 24b8
00000270: 5c8b bdb8 630c b938 a642 3038 999e c538
00000280: 5b10 9237 31ef beb8 275f 46bf e268 9cb6
00000290: 9c87 df38 67c7 9737 1254 463f 9978 bab7
000002a0: 7438 fbb7 859c 4b38 a8a9 eeb7 57ee 02b9
000002b0: 66ef 65b6 6584 49b8 00a9 5237 0fe5 b53c
000002c0: 80b5 f13c d217 dd3c b6ed ff3c d153 e93c
000002d0: c483 6b3c 1232 9d3c 3332 a83c d9dc ad3c
000002e0: ee1e d53c 3b9d 473c 7197 bb3c 1701 41bf
000002f0: 5c61 a13c 0a68 533c 60d7 8cbb 67c3 e1ba
00000300: ba69 c43a 5bfb 463f ca33 c23b d36a 29bc
00000310: 2408 debb 7526 18bc 7077 9dbb ea7b 27bc
00000320: eaba 013a c0a6 1a3c 3929 e33b a1bb 413c
00000330: 458b 203b cea0 8dbb 0eed 0b3b edec 0bbb
00000340: ebce 953b 27d3 bb3a 682f dbb9 df71 473f
00000350: 739c c6bf 9281 463f 3262 9abb cfb8 0fbc
00000360: 004a 62ba 4af9 27bc b6a7 ccbb eaa4 17bc
00000370: a7d5 1ebc f76e 863a 722c 10bc d4a5 f4bb
00000380: 13f5 83bc 2ad3 afb9 37c3 35b9 b88d f0b9
00000390: 2aaa 05ba 1d04 afb9 ed7f 90b9 4fc1 9bb9
000003a0: 243c 463f 75aa f9b9 224b dbb9 0047 2fb9
000003b0: f3f9 d2b8 8d62 c6bf 1dae 23b9 32e9 8db9
000003c0: 3bf6 9cb9 0e74 28b9 0a56 463f 475d 28b9
000003d0: a22c 83b9 28f7 0eba 584f 75b9 342f 8cb9
000003e0: fc4e 7bb9 742a cab9 e75b e7bc 0580 d9bc
000003f0: 267c b8bc 30f6 e2bc f26e f8bc d0a9 5f3c
-0.00025226697 -0.00012424815 -0.00015823275 0.00016658088 0.00011677609 -9.303891e-05 -1.9743014e-05 -2.5125444e-05
0.0003739248 0.00021522006 -0.00014332062 -9.619337e-05 -0.7748381 0.7751778 7.6275086e-05 -0.0002755865
-0.00025823855 -0.00011877254 0.00022461072 -0.00010092967 -0.00035423282 -0.00022030127 -3.0131258e-05 0.0002580491
-8.049802e-05 0.028647175 0.031156637 0.033234112 0.024988113 0.03239359 0.017075459 0.017570036
0.78691244 0.0074984897 0.01268052 0.009913032 0.01197365 -0.76170874 0.0077963765 0.007742655
-0.019444473 -0.009014795 -0.008057696 -0.010918024 -0.016116047 -0.02291526 -0.019868612 -0.022053134
-0.022091797 -0.020690998 0.041613333 0.038673323 0.010197338 0.0051686647 0.02652797 0.028866794
0.027370086 0.0041624154 -0.00024783352 0.015590579 0.011287424 0.78674257 -0.7846877 -0.010316337
0.0060324175 -0.019549867 -0.014300926 -0.035892993 -0.039629348 -0.026440104 -0.028804233 -0.02618909
-0.051317323 -0.054094538 -0.04342463 -0.00020272279 1.5904516e-05 -3.171123e-05 0.0002318386 0.00021204232
-0.00036303574 -0.00018953923 -0.00023230175 0.00017556356 1.63042e-05 -0.00018574948 -0.00016632209 -0.77495503
0.00017822832 8.919045e-05 -0.0001675972 -1.4469189e-05 0.7744864 0.00027686995 6.8328e-05 -0.00014552308
-3.3747343e-05 -7.605554e-05 0.00019312376 9.111278e-05 0.09379377 0.06929685 0.06755579 0.044385154
0.052621868 0.064197265 0.048323 0.027868541 0.78673124 0.008450835 0.0555571 0.041275937
-0.73666537 0.018141592 0.0009738902 -0.04507019 -0.036013592 -0.034657523 -0.035381123 -0.059862245
-0.06779013 -0.07484584 -0.093570724 -0.10016922 -0.096717 0.13071454 0.115562886 0.09172793
0.09397574 0.12382402 0.071553685 0.8225335 0.031125724 0.04839414 0.07051105 0.0047715832
0.010648976 -0.7910278 -0.01612531 -0.0015702964 -0.0597791 -0.04824126 -0.07171946 -0.08055723
-0.07993961 -0.085266076 -0.07995723 -0.10554528 -0.10462238 -0.1077249 -0.00011992998 -0.00019327881
8.874803e-06 -1.3140463e-05 -2.338805e-05 -3.9155802e-05 -9.03818e-05 8.8237946e-05 4.202374e-05 9.423233e-05
1.7412172e-05 -9.104459e-05 -0.7748894 -4.6613723e-06 0.00010658728 1.8093457e-05 0.7747203 -2.2229086e-05
-2.994782e-05 4.854474e-05 -2.8450813e-05 -0.00012486555 -3.4263007e-06 -4.8045436e-05 1.2556324e-05 0.02220395
0.029505491 0.026988897 0.03124128 0.02848235 0.014374677 0.019188914 0.02053175 0.021223472
0.026015725 0.012183483 0.022899361 -0.7539229 0.019699745 0.012903223 -0.0042981356 -0.0017224372
0.0014985122 0.7772729 0.005926584 -0.01034041 -0.006775873 -0.009286513 -0.004805498 -0.0102224145
0.0004948812 0.00943917 0.0069324044 0.011824519 0.0024497074 -0.004322148 0.0021351012 -0.0021350936
0.0045717857 0.0014329896 -0.00041806255 0.7790813 -1.5516495 0.7754146 -0.004711413 -0.008772089
-0.00086322427 -0.010252306 -0.0062455786 -0.009255627 -0.009694493 0.0010256459 -0.008799659 -0.0074660573
-0.016108071 -0.0003353593 -0.00017334228 -0.00045881956 -0.0005098904 -0.00033381666 -0.00027561132 -0.0002970793
0.7743552 -0.0004761998 -0.00041826913 -0.0001671575 -0.00010060137 -1.5498825 -0.00015609754 -0.0002706736
-0.00029938095 -0.00016064962 0.77475035 -0.00016056477 -0.0002501952 -0.0005453699 -0.00023394579 -0.0002673805
-0.0002396665 -0.00038560072 -0.028242065 -0.026550302 -0.022520136 -0.027705282 -0.03032634 0.013651326

conv1.bias f4 [30]
00000000: 7dbc a6bd 2f71 86bb ce5e aebc 3b47 cb3d
00000010: 3be9 92bc 4b21 d3bc 6bc4 59bd 7e92 a2bc
00000020: d46a 2ebe 3db4 0dbb 87dd 4c3d 9bed adbd
00000030: 8ed3 f9bd d7a6 0cbd ff27 89bb e347 4ebd
00000040: 5643 653d bf2b b8bc 29d1 6a3d 594e 1cbd
00000050: e0fc 1a3c f728 e43b 6a0c efbd a432 09bd
00000060: 459e a8bc 0a0c 9e3d 5538 933d d6ea 0abc
00000070: bd12 33be 9dd5 eabb
-0.0814142 -0.004102848 -0.02128544 0.099256955 -0.017933479 -0.025772711 -0.053165834 -0.019845244
-0.17032939 -0.0021622323 0.050015952 -0.08492585 -0.12198554 -0.0343388 -0.004185676 -0.050361525
0.05597242 -0.022481797 0.057328377 -0.038160656 0.009459704 0.006962891 -0.1167229 -0.03349556
-0.020583281 0.0771714 0.07188479 -0.008478841 -0.17487617 -0.007166578

conv2.weight f4 [16, 30, 3, 3]
00000000: d881 7f3d 84c4 493c ae10 d03d 6a8b 94bd
00000010: feac 06bd bc14 393d 5423 913d 76ca c5bc
00000020: 8990 543d 851f a1bc 9bf3 bfbc d48a ae3d
00000030: 2bb2 f43c 800c ffbc 0f2e 0b3d 3d0b f13d
00000040: 4cd2 6a3d 5d19 9f3c 2138 91bc 0774 5bbd
00000050: 2865 603d fc29 4f3b 1fa9 31bd 83bb 073c
00000060: 5f91 e73c 36e6 3b3b 8743 15bc 6626 bcbd
00000070: 2d6c f4ba 1c55 fdbc 84e3 4c3b 7252 3abd
00000080: 887b 2e3d 9e37 85bd d2c2 1abd 7564 51bd
00000090: d529 3abd 5147 753b 86c5 1fbd 0d39 13bd
000000a0: dcb0 9d3c 5485 473d 7b00 2fbd ec89 513d
000000b0: 4e79 fa3c f838 8b3d 2b26 103c 91a8 9c3d
000000c0: 6aa1 a9bd e1bc 163d 27ad 8cbd d5c6 073d
000000d0: 4208 2ebd 91b9 b8bc 7c59 a33d b438 bc3d
000000e0: a12c 89bc 0d4f 54bd c92d 713d 7592 03bd
000000f0: 4417 38bd c501 8ebd 0e5a c43d dacd 3bbb
00000100: f2fc 553c 0499 6ebd 0090 163d 5f98 b9bd
00000110: c75c f8bc ff73 bebc 7a8e 383d 1004 88bc
00000120: bbcf 273c ef9f 8d3d bf2e 083d 3a29 933d
00000130: 3b05 b1bc dc9b 6b3d fc84 5dbc adbe 10bc
00000140: 858a 8e3c d13d d63d ab03 af3c c818 913c
00000150: 1dec 8dbc 2dd0 acbc a470 b23d d7f4 5cbc
00000160: 5820 fabc d079 d83c fd26 e93c bdb6 52bb
00000170: 3163 b53d 0b20 943d a503 1e3d 923b fdbc
00000180: 60a2 d5bc dee0 bb3d 712a ea3c d1b1 90bd
00000190: 1d30 f23a d940 113d 7cd6 233d ee60 c23d
000001a0: 6792 993c 0eb9 6c3b e9c0 a63d 89bb 1b3b
000001b0: fe10 043d 6ce5 8abd b66d fdbc 1b8c 8bbd
000001c0: 6672 383c 846b 91bd 11a1 953d 7036 21bd
000001d0: b96b 7dbd 340e 803a 300b 3dbd cafa 6bbd
000001e0: b0f2 873d d65a 093d f560 9e3c 9054 253d
000001f0: d8f2 14bd 4dbb bf3b ec30 ba3d 708c 10bd
00000200: 40d6 303d a945 ad3d 07e4 d6b9 466a b53d
00000210: cc52 e3bc 0958 bbbc 7514 b73c 37fd 98bc
00000220: 6864 d2bc 7821 a0bc 46ec 993c 0a28 34bd
00000230: 4d56 7dbd db70 a2bd 2820 af3d b3ee 87ba
00000240: bfa7 0c3d ee08 b6bd 55ae 59bc a77d 91bd
00000250: a476 ed3a 18c6 b83d e063 713d f29f 2ebd
00000260: 937f 6cbd ea3c aabd bbf5 4cbd 8e30 ed3c
00000270: 3a2b 77bd 6b30 503d 14fc 0fbd dec8 a23d
00000280: 57f9 f4bc 47e4 b8bc 3595 493d f26d 893d
00000290: 1de2 953d 284b 763d b61d 93bd e3ae 5c3d
000002a0: dba9 81bd 8404 4b3d 6c2c 703d 60ff 833b
000002b0: db3c 493d c6d4 2e3d 846d 703d c2af ca3d
000002c0: 11c1 6c3d b46d d0bc 0595 6f3b fbee 753c
000002d0: 2358 95bd df4b 163d 8058 59bd 27ac 863d
000002e0: 3306 bf3d d25a b93c 8bd6 a73d 9fc3 d83b
000002f0: 9f56 843d 7216 4b3d c3c1 8ebd 57c9 87bd
00000300: 6949 09bc f7ed 633d a9e5 9138 5901 2cbc
00000310: 47c4 853d 76a7 bf3d 4aa0 2f3d 33dc fc3c
00000320: f993 503d 4f31 863c 14ed a2bd d5b1 b4bd
00000330: e0d1 a9bd 6a6c 9fbd 3112 983d f0ac 3bbc
00000340: 7bbc 89bd 7876 943c f53a 00bb 084d 59bd
00000350: 22ae afbd 6e32 813c 3a9d 8abb f45d 19bd
00000360: 5bf7 5abd a18d c9bc d9fd a63d 0530 96bd
00000370: 6c43 febc c576 c1bc aa6e aa3d 2eae 333b
00000380: 0156 7f3d cf90 27bc d720 08bc 9c25 713d
00000390: 78ed cebc 64f1 9b3d b9e3 d03d d2f5 f33c
000003a0: 3dd9 463d 4334 9ebd 7560 b63d 769b 40bd
000003b0: 4b49 793d b3fe 193d 89ad b83c 2a5c 173d
000003c0: 0081 c3bd e9e7 ab3d 1785 1dbc 1e01 a23d
000003d0: 2d8b 843a 0b4a 1bbd cff1 653d 4648 8a3a
000003e0: 3d66 6dbd bc2a d53b d69a cabd 7d0f 7ebd
000003f0: 0209 9cbd 73d0 ac3b 57dd 49bd 7432 a3bb
0.062379688 0.012314919 0.101594314 -0.072531536 -0.032879822 0.04518579 0.070868164 -0.024144392
0.051895652 -0.01966835 -0.02343159 0.08522573 0.029870113 -0.03113389 0.03397947 0.11769722
0.05732946 0.019421274 -0.01772696 -0.05357745 0.05478397 0.0031610718 -0.043374177 0.008284452
0.02826756 0.0028671152 -0.009110338 -0.091870114 -0.0018647962 -0.030924372 0.003126354 -0.045488782
0.042598277 -0.06504749 -0.03778345 -0.051121194 -0.04545005 0.003742654 -0.039006732 -0.03594308
0.019249372 0.048711136 -0.042725068 0.051156923 0.03057542 0.06797975 0.008798162 0.07649339
-0.082827404 0.036801223 -0.06868964 0.033148605 -0.042488344 -0.022549422 0.07976052 0.09190503
-0.016744914 -0.0518332 0.058881555 -0.032122094 -0.044944063 -0.06933931 0.09587489 -0.0028656633
0.013060795 -0.058251396 0.036758423 -0.090622656 -0.030317677 -0.02324867 0.04505775 -0.0166035
0.010242398 0.069152705 0.033247706 0.07185598 -0.02160894 0.057521686 -0.0135204755 -0.008834523
0.017400036 0.10461009 0.021364054 0.017712012 -0.017324502 -0.02109536 0.08712891 -0.013486109
-0.030533 0.026425272 0.028460974 -0.0032152378 0.0885681 0.07232674 0.038577694 -0.030912194
-0.026078403 0.091737494 0.02858469 -0.07065166 0.0018477474 0.035462234 0.03999947 0.09491144
0.018746568 0.0036121043 0.081422634 0.0023762903 0.032242768 -0.0678204 -0.030936103 -0.06813832
0.011257743 -0.07100585 0.073061116 -0.039358556 -0.06187031 0.0009769858 -0.046153247 -0.057612218
0.06638086 0.033533894 0.019333342 0.04036385 -0.036364406 0.0058511854 0.09091362 -0.03529018
0.043173075 0.08460552 -0.00040987154 0.08858161 -0.027749442 -0.022869127 0.022348622 -0.01867543
-0.025682643 -0.01954721 0.018789422 -0.043983497 -0.06184988 -0.07931682 0.08551055 -0.001037082
0.034339663 -0.08888422 -0.013286193 -0.071040444 0.0018117023 0.090221584 0.05893314 -0.042633004
-0.05773885 -0.083124 -0.050039034 0.028953817 -0.06034396 0.050827425 -0.03515251 0.079484686
-0.02990405 -0.022569789 0.04921456 0.067104235 0.07318518 0.06013027 -0.07183401 0.053877722
-0.063312255 0.049564853 0.058636114 0.004028246 0.049130302 0.042683385 0.058698192 0.098968044
0.05780131 -0.025442936 0.0036557328 0.015010591 -0.07292201 0.03669345 -0.053062916 0.06575804
0.09327354 0.022626314 0.08195218 0.0066151167 0.06461834 0.049581952 -0.06970551 -0.066301994
-0.008379319 0.055646863 6.956916e-05 -0.010498368 0.065315776 0.093581125 0.042877473 0.030866718
0.050922368 0.016380934 -0.07955375 -0.08822981 -0.082919836 -0.0778435 0.07425345 -0.011454806
-0.06725403 0.018122897 -0.001956639 -0.05305198 -0.08578135 0.015771117 -0.0042301686 -0.037443116
-0.053458553 -0.024603667 0.08153886 -0.07333378 -0.031038009 -0.023616204 0.08321889 0.0027417052
0.06233788 -0.010227396 -0.008308611 0.058873758 -0.025259718 0.07614401 0.10199685 0.029780302
0.04854702 -0.07724812 0.089051165 -0.04702326 0.060860913 0.037596416 0.022543686 0.03695313
-0.09546089 0.08393843 -0.009614251 0.07910369 0.0010112278 -0.03791241 0.05613881 0.0010550104
-0.05795883 0.0065053385 -0.09892814 -0.06202649 -0.076189056 0.0052738725 -0.04928335 -0.0049803797

conv2.bias f4 [16]
00000000: adfa 98bd 6f1a ba3c a8f3 b6bd c9b2 0bbd
00000010: 4050 6ebd d1a0 983c fe12 bc3c 246c 46bc
00000020: 1a17 a3ba a63f 4abd bed6 18bd 4988 c5bc
00000030: cba6 8e3d 885b 12bd 5742 27bd 40bb 8cbd
-0.074696876 0.022717683 -0.089331925 -0.03410605 -0.058182 0.01863137 0.022958275 -0.012110744
-0.0012442798 -0.049377106 -0.03731417 -0.024112837 0.06965407 -0.035731822 -0.04083475 -0.068716526

conv3.weight f4 [16, 16, 3, 3]
00000000: 6fc7 1e3e c9e2 9e3c dc5c 44bd a5e2 1e3e
00000010: fa4a b43d f7fe 953d 225e 4a3a 4ddb 1b3e
00000020: f853 0f3e e89d 8fbd a505 a03d 3fb6 043e
00000030: 8cbb a4bd 6c72 1b3d 7a5b 41bd 7bd9 c43d
00000040: bff4 c73d f283 8e3d e76a cbbc 7353 c23d
00000050: f779 b8bc 2533 9a3d f523 5b3d 80b9 bcbd
00000060: b293 8dbd d0e3 f4bb 9674 bcbd 48c2 c8bc
00000070: f36b 853d 81cc d73d 3e8f 05bb 9ecb a0bc
00000080: 82fd 9dbd b2ea 1e3d 2860 a93c fd5e 593d
00000090: dd0d 33be 647a 83bd 80a2 fcbd 7081 1bbe
000000a0: 0764 f2bc dcc4 37be 3920 11be a50e 7f3c
000000b0: 531b 16be 2419 d63b 271f e1bd b717 22be
000000c0: b3f7 73bd 8ea0 fabd f76a 15bd 4a04 45bb
000000d0: f273 29be 8348 27be 5aba d53c c84b 783d
000000e0: f5bc 253e cb02 f53d 28fc dabc 6bea e13d
000000f0: e989 d53d 8022 31bd 5491 e83d 1f40 f13d
00000100: 0d48 72bc f991 dd3d bede f23d dd49 2e3d
00000110: 7ff0 8c3c 9bb6 d53d b752 b83d 9bff f23d
00000120: 777e 92bd 221d 153d 1dcc 7e3d 2f37 9ebd
00000130: 1ff6 563c 606c 91bd 3cfa a1bd 8b31 df3d
00000140: a258 c5bd f341 9cbd 8c22 043e 6c80 db3d
00000150: d033 2d3d cbe0 ce3d b18b c23c 432b 21bc
00000160: 5270 743c 62b7 503d 81c9 21be 6340 20be
00000170: c034 d5bd 7298 a7bc 7cb7 193d 9263 cdbd
00000180: 662e 17be 9870 1ebe 3432 85bd f267 90bd
00000190: 848d d2bc 9804 97bd 7da1 4e3d dd11 1cbd
000001a0: 2d46 a3bd 9cd1 103d 3e23 a4bb 7a4c 8a3d
000001b0: dae2 9b3d b437 ec3d 6c31 d73d 08b6 afbb
000001c0: 85c3 0a3e e9b1 843d 1b73 163d e9b1 743d
000001d0: 2aaa 113e aeab bf3d ee50 d73d d88d 60bd
000001e0: 666f 65bc d97a 133d 2dae 79bb 91e9 21bc
000001f0: 5a7d c13d 55e6 4bbd 5509 ddbd e59d 1cbd
00000200: ed52 ebbd 000b e7bd 59c2 08be bf96 983c
00000210: 9c98 f0bd c70d a1bd f128 80ba 0652 1cbe
00000220: 7d1f 0dbd 82b7 b4bd ca99 03be 02cc f7bc
00000230: 532c 8dbc eefd 0a3d f8b3 a83d 038a 793a
00000240: 3561 2c3a 2375 6dbd 458c f8bc 7630 d1bd
00000250: 23b3 d0bd 0b90 aebd 42fe a13d 6d5b 483d
00000260: 787d d13d 4588 a83d e204 ab3d 2bd9 d03c
00000270: eb8f 623d 3a91 233d 387e bbbd 89f6 aebd
00000280: bdb6 be3d 18ca 903d b060 e2bc 6d5e 82bd
00000290: 7f2e a0bd 189f afbd f7c4 12bd b642 193c
000002a0: c581 673b 8c0e 293d 4b6e 603c 5472 f03c
000002b0: 426c ab3d d515 c33c c1fc d9bb a772 613d
000002c0: 2a53 1b3d c1a0 453d 2c33 f9bc fc8a e4bd
000002d0: 2166 05bd a944 c03d 3740 18bd e44a 66bd
000002e0: 4014 4abd cc46 873d 595b e03d e041 d4bd
000002f0: 72f8 18bd d967 b43d fda3 c13c ecfd 8a3d
00000300: 35df aebd dcae 8b3d 89cd 62bd ea63 8dbd
00000310: bc79 35bd 6d59 a7bd ad6c 263d 5926 ab3d
00000320: ec67 88bd f505 293d 371c aabd 5293 7a3d
00000330: b226 b3bb 2c49 333c f3ad b0bd f876 283d
00000340: 2dee 2d3d f622 22bd 1048 41bd 0b32 b53d
00000350: 00c6 a33d 4a15 68bd f7ea 233d 6e39 42bd
00000360: ca42 d5bd 8833 a6bb dc24 c3bd 6fab 59bd
00000370: 46d0 14bc 1a97 94bd 8a1a 863d c747 08bd
00000380: e1c0 b3bd df66 c83c 78d2 053d 2800 dbbc
00000390: 764b adbd 4292 4b3d 2e5b 1ebd e58f 34bd
000003a0: 7a3a bd3d ee4d 7fbd 94f7 783d c291 0bbb
000003b0: 304d e1bc 2b55 8ebd 5190 dd3d eff2 343c
000003c0: 9600 783c 4c1d b7bd 7b0d a13d 22f5 acba
000003d0: 1d55 4b3d 17e8 9a3d 8001 da3c 54de 853d
000003e0: 0b09 55bd 3883 3f3d ba48 3b3d ace3 663d
000003f0: 5d6e 09bd 1476 893d f541 d03d af38 5dbd
0.15505765 0.019395249 -0.04794012 0.15516146 0.08803363 0.07324021 0.00077197154 0.15220375
0.13996875 -0.0701254 0.078135766 0.12960146 -0.08043584 0.037950918 -0.04720638 0.096117936
0.097634785 0.0695876 -0.024831248 0.09488573 -0.022519095 0.07529286 0.05350109 -0.09215069
-0.06912936 -0.0074734464 -0.092019245 -0.024506703 0.0651473 0.10537053 -0.0020379568 -0.019628342
-0.077143684 0.03879804 0.020675734 0.053069104 -0.17485757 -0.064198285 -0.12335682 -0.15186095
-0.029588712 -0.1794619 -0.14172448 0.015567456 -0.14658861 0.0065337587 -0.1099227 -0.15829359
-0.059562396 -0.122376546 -0.036478963 -0.003006237 -0.16548136 -0.16336255 0.026089836 0.060619146
0.16185363 0.11963423 -0.026731566 0.1103104 0.10426695 -0.043245792 0.11355844 0.11779808
-0.014787686 0.10818858 0.11858891 0.04255091 0.017204521 0.1043522 0.090001516 0.11865159
-0.071530275 0.036404736 0.062206376 -0.07725369 0.013120203 -0.07100749 -0.079090565 0.108981214
-0.09636046 -0.07629766 0.12903804 0.10717854 0.04228574 0.101014696 0.02374825 -0.009836975
0.014919357 0.050956137 -0.15799524 -0.15649562 -0.10410452 -0.020458434 0.0375285 -0.10028757
-0.14763793 -0.15472639 -0.06503716 -0.07051076 -0.025702246 -0.07373923 0.050446976 -0.038102973
-0.07972369 0.03535615 -0.005009084 0.06752868 0.07611628 0.11534062 0.10507473 -0.005362276
0.13551147 0.06479246 0.036730867 0.05973998 0.14225069 0.09358917 0.10513483 -0.054822773
-0.01400361 0.03600583 -0.0038098202 -0.009882347 0.09447737 -0.04978021 -0.107927956 -0.038236517
-0.11490426 -0.11281395 -0.13355388 0.018626569 -0.11747858 -0.07863956 -0.0009777826 -0.15265664
-0.034453858 -0.08824064 -0.12851635 -0.030248646 -0.01723305 0.033933572 0.08237451 0.00095191615
0.0006575764 -0.05797304 -0.030340323 -0.10214321 -0.101904176 -0.08523568 0.07909824 0.048915315
0.102290094 0.08229116 0.08350541 0.025494179 0.055313032 0.03993342 -0.09154934 -0.085431166
0.09312198 0.07069796 -0.027633995 -0.063656665 -0.078213684 -0.085752666 -0.03583237 0.009354284
0.0035325151 0.04127364 0.013698171 0.02935139 0.08370258 0.023814121 -0.006652445 0.05504098
0.03792111 0.04824901 -0.030419908 -0.11159322 -0.0325681 0.09388096 -0.037170615 -0.056223765
-0.04933572 0.066053 0.10954923 -0.10364127 -0.03734631 0.0880887 0.023637766 0.06786713
-0.08538667 0.06820461 -0.055371795 -0.06903823 -0.044305548 -0.081713535 0.040630985 0.083569236
-0.066604465 0.041265447 -0.08306163 0.06117565 -0.0054672593 0.0109427385 -0.08626928 0.041129082
0.04246347 -0.039584123 -0.047187865 0.088474356 0.0799675 -0.056660928 0.040019 -0.04741805
-0.1041313 -0.005072061 -0.09528515 -0.053142007 -0.009082859 -0.07255383 0.06548031 -0.033271577
-0.08777023 0.024463115 0.03267142 -0.026733473 -0.08461659 0.04970003 -0.038661174 -0.04408254
0.09239669 -0.06233018 0.060782984 -0.0021296595 -0.027502626 -0.06949838 0.10818542 0.011044248
0.015136858 -0.08941135 0.07863899 -0.0013195614 0.049641717 0.07563799 0.026612043 0.06536546
-0.052010577 0.046756 0.045723654 0.05636947 -0.033552516 0.06711975 0.1016883 -0.054009136

conv3.bias f4 [16]
00000000: 8015 de3d 572b 0a3b a6b2 de3b 9e27 da3d
00000010: 4fdb 72bc 471a 27bd b220 ae3b f6fa 823d
00000020: 03e1 973d a183 84bc 36df 823c 15c4 7cbc
00000030: a801 013e cb12 6f3b b65c f4ba 59e5 58bb
0.108439445 0.0021082961 0.006796199 0.10652088 -0.014822795 -0.040796544 0.005313956 0.06395523
0.074159645 -0.016176047 0.015975576 -0.015427609 0.12598288 0.0036479707 -0.0018643353 -0.0033095686

conv4.weight f4 [16, 16, 3, 3]
00000000: 3742 2a3c 3666 cebd 9437 763d 9039 323d
00000010: ac6c 9e3c 2255 e1bc 7e40 c83d 4d70 c5bd
00000020: fc6c 5d3d d132 c83d 68bb 203d 57b3 bb3d
00000030: a516 8cbd 3b43 cd3d 0a0b a83d bc8c 40bd
00000040: 9e6e c33d 1011 50bd c6bb c2bd 385c d43d
00000050: 1922 0d3d 5287 7a3d a7c6 d33c f147 823c
00000060: 27bc 123d ab80 243d d1b9 99bd 9a1f 943d
00000070: 04d0 d43b 4bea 3f3d 39e2 c9bd 4a2b 91bd
00000080: 421a 56bd adfb bebd 4562 ad3d 0889 793c
00000090: cb76 a9bd ed3f 90bd ca3b e0bc c0b2 bc3d
000000a0: 5547 43bd ecb9 cb3d 3e18 723d bd48 a8bd
000000b0: ea07 d0bd 3fb9 023d f755 9d3d ae0c b3bc
000000c0: acc9 c8bd 38e4 293d 7f34 17bd 8b5b 59bd
000000d0: 98a4 193c d0e6 aa3d 427a cfbd 0de9 c73c
000000e0: f490 a7bb 1f78 9ebd e25d be3d 5da6 88bc
000000f0: 65df d93d a586 a3bd d546 e43b 77be f3bc
00000100: de29 bf3c 9d12 ddbd dfce 073d fda2 74bd
00000110: 1427 7f3d 63e9 44bd d0ed 8aba d7e2 b1bd
00000120: 791d 93bd 1faf 593d d566 cc3d d8a3 be3d
00000130: 8c50 bcbd c3fc 16bd 3b47 9d3d 8e35 343d
00000140: 6ae6 7f3d 3989 cf3d 8058 fbbc cbad 19bd
00000150: ea74 133c e8b3 cfbd 2e8d c5bc c18b d83d
00000160: 2728 17bc 0519 28bd 9f80 32bd efea babc
00000170: 0091 45ba 52c8 c9bd 7953 ad3d a076 debd
00000180: 4922 62bd daf6 bbbd f3fe 85bd 2252 073d
00000190: e37b 8ebd 00ca 34bd 9b1a a1bd e6f0 aabb
000001a0: 3d6c cc3d 165b 403d 42e1 8a3d 1d44 b6bd
000001b0: 66c8 20bd d20c 493d 0230 48bc e565 ae3d
000001c0: e253 a4bd cc3d debd a4a0 b3bd cc27 6bbd
000001d0: 6233 9d3d e9c1 21bd d6fa 60bd 4d6e 9bbb
000001e0: 9a67 7c3d 751a e4bd e3a3 d6bc 4b9f 29bd
000001f0: ef75 94bd c617 0cbd be7c 3dbc 9d65 cebd
00000200: 587e af3d 77d8 0a3d ef4f 0b3b 37ff daba
00000210: f979 883c 12b7 ce3d db48 9b3c e5e2 6c3b
00000220: fda5 3ebb 5aad 9bbd 1caf e1bd e3b9 aebc
00000230: 8946 cfbd c7c9 3b3d 2d0b 80bd 43e0 663c
00000240: b3f9 6b3d ec02 52bd 4590 67bc b10d 97bd
00000250: 43d5 22bc 7ebb cf3d eb09 733d f095 b73d
00000260: 92af 4bbd 1c24 cbbd c848 51bd 0b59 3fbd
00000270: d6df 873d 4763 68bd 5929 953d e870 afbd
00000280: afd2 003d 0868 793c 1153 963d bb78 973d
00000290: ac2b aebd 261d ca3d 3569 de3c 4ce6 df3d
000002a0: fd3f 3c3d 36d9 c3bd 4f03 e53c feee 44bc
000002b0: 842e 503d b3f6 2dbd 2503 35bc 9343 bdbd
000002c0: cc03 a6bc aeec 87bd 2a49 f43c a388 b8bd
000002d0: 67f9 cbbb 7816 313c 2479 3a3b d102 d23d
000002e0: c5f4 cabd 41dd a03d ac6e f0bd 058f 4dbd
000002f0: 1dcb 52bd 861c 6dbd 609c 153d 766f 3bbd
00000300: 7a1e 0abd 3182 b53d eac3 063d 5e20 033d
00000310: f747 00bd 32fe 013d 379b 48bd 288f e33c
00000320: 3349 c5bd ddc5 cabd 40eb 6e3d 6dfd 773d
00000330: ad98 8d3d 0dcc 5bbd 9c45 96bc 42f5 86bd
00000340: 158d 78bd 3836 583a 95ab a4bc 1c49 863d
00000350: 10d7 b93d a4ad bc3d 2e87 06bd 72a4 713b
00000360: 34c8 2abd 581c a53c f57f dcbd 4ebc bcbc
00000370: bb83 45bc ae8c bf3c ac95 673d 2cab 34bc
00000380: 059b 5dbd b3ac cc3d 91fc cbbc a12a acbc
00000390: c1be 83bd 069d 583d a50a 813d 7b49 793d
000003a0: 205f 823c abf2 9ebd f355 d13d c07a 993d
000003b0: 5605 8d3d 5ff4 353d c764 883c 6985 6c3d
000003c0: 0bf2 f8bc 84f5 e2bd eb3c 5ebb 0dac a9bd
000003d0: 9df6 b63d 216f c7bd cdf9 2ebd 84e9 063d
000003e0: 00c0 573d 8457 e23d c4a7 ba3d 8684 9d3c
000003f0: 8d75 b43d ad4f b73b c0c9 43bd 9ef0 833a
0.010391763 -0.10078089 0.060111597 0.043511927 0.019338928 -0.027506415 0.09777926 -0.0964056
0.054059014 0.097753175 0.039241225 0.09165066 -0.068402566 0.10022589 0.082052305 -0.047009215
0.09542583 -0.050797522 -0.09508471 0.10369152 0.034456346 0.061164208 0.02585156 0.015903445
0.035823967 0.04016177 -0.07506145 0.0723259 0.006494524 0.0468543 -0.09857602 -0.07088335
-0.052271135 -0.09325347 0.08466009 0.015230425 -0.08274611 -0.07043443 -0.02737226 0.09213781
-0.04767545 0.09947571 0.05910515 -0.08216999 -0.101577595 0.031914946 0.07682412 -0.021856632
-0.09804091 0.041477412 -0.0369153 -0.053065818 0.009377621 0.08344805 -0.10130741 0.02440312
-0.0051137153 -0.07737755 0.092952505 -0.01668089 0.10638312 -0.07984666 0.0069664516 -0.029753907
0.023335394 -0.10794566 0.033156272 -0.05972575 0.062293127 -0.048074137 -0.0010599438 -0.086858444
-0.07183356 0.053145524 0.09980551 0.093085945 -0.091950506 -0.036862146 0.07679602 0.043996386
0.0624756 0.10133595 -0.030681849 -0.037519258 0.009000042 -0.10141736 -0.024115171 0.10573531
-0.009225882 -0.041039485 -0.043579694 -0.022817103 -0.00075365603 -0.09852661 0.08463187 -0.1086247
-0.055208478 -0.091779426 -0.06542768 0.033037312 -0.06957223 -0.044137955 -0.07866403 -0.0052167056
0.09981582 0.046961866 0.06781246 -0.0889971 -0.039253615 0.049084492 -0.012218477 0.085155286
-0.08023812 -0.108516306 -0.08770874 -0.057411 0.07675816 -0.039491568 -0.054926716 -0.0047433735
0.06162224 -0.11137859 -0.026201194 -0.04141168 -0.072490565 -0.03420236 -0.011565385 -0.10077975
0.0856902 0.033897843 0.002125736 -0.001670814 0.016659724 0.10093512 0.018955639 0.0036145982
-0.0029090636 -0.076014236 -0.110197276 -0.021328872 -0.101208754 0.045846727 -0.062521316 0.014091554
0.05761118 -0.051272318 -0.014133518 -0.07375658 -0.009938541 0.10143183 0.05933563 0.08964145
-0.049727984 -0.09918997 -0.0510948 -0.046715777 0.0663449 -0.056735303 0.07283277 -0.08566457
0.031450924 0.015222557 0.073400624 0.073960744 -0.085044235 0.09868841 0.027149776 0.109325975
0.04595946 -0.09562914 0.02795568 -0.012019871 0.05082561 -0.0424716 -0.011048113 -0.092414044
-0.020265482 -0.0663694 0.029820044 -0.090104364 -0.0062247994 0.01080858 0.0028453553 0.102544434
-0.09909967 0.07854701 -0.11739859 -0.050185222 -0.051463235 -0.05788853 0.036526084 -0.045760594
-0.03372047 0.08862723 0.032901682 0.03201329 -0.03131863 0.03173656 -0.04897615 0.027778223
-0.09633102 -0.09901021 0.05832982 0.06054442 0.06913886 -0.053661395 -0.01834374 -0.06589748
-0.06068142 0.00082478253 -0.020101348 0.06556913 0.09074223 0.09212807 -0.03284376 0.0036871699
-0.041694835 0.020155117 -0.10766593 -0.02303901 -0.012055333 0.023382511 0.056539223 -0.011027139
-0.054102916 0.09993877 -0.024900706 -0.02101642 -0.06432868 0.052884124 0.063008584 0.060861092
0.0159145 -0.07761129 0.10221472 0.07494116 0.068857834 0.044422504 0.016649617 0.057744417
-0.030388853 -0.11081985 -0.0033910822 -0.08284769 0.089337565 -0.09737993 -0.042718697 0.03293754
0.05267334 0.110518485 0.0911403 0.019228231 0.088114835 0.005594215 -0.047799826 0.0010066216

conv4.bias f4 [16]
00000000: ecc5 18bd 6d92 253c 6cda 093e b31d 963d
00000010: b80c 5b3d 0eff fa3d bede 79bd 063d 0dbd
00000020: 7568 703d 629a d3bb 74c5 a33c c631 10bd
00000030: b20a 153e faa4 853d 841b 143e b9e8 49bc
-0.037298128 0.010105711 0.13462228 0.073298834 0.053478926 0.12255679 -0.06100344 -0.034482025
0.058693368 -0.006457613 0.019991614 -0.035203718 0.14554861 0.065256074 0.14463621 -0.012323552

conv5.weight f4 [16, 16, 3, 3]
00000000: e862 ad3d e635 d23c b43d 933d 1f81 903d
00000010: 15cf 783d 14f5 843d ef9e c2bd 6641 e23c
00000020: 0f84 99bc 1053 0c3d 5996 52bd bd6c e73d
00000030: 18f9 02bd 7428 543d c399 c43d a98a bebd
00000040: 09cd 23bd 4751 b8bd a80d 8e3d 8e58 cbbd
00000050: b857 3d3d 24c9 73bd 5752 11be b0e3 c6bd
00000060: e1ce 32bd 05a7 8c3d e2b5 07be a006 01be
00000070: 5c12 ef3b 4406 f5bd 6561 b8bd 4e51 19bc
00000080: 069c efbd 262f efbd a44a 4a3d 2dae abbd
00000090: 997a 713c 794c 84bd daa9 683d 7463 013c
000000a0: b7e7 ac3d 3d80 293d 33d0 de3d 6a2c e33d
000000b0: 2d22 61bd e0d5 973d 6753 123e 6faa 573e
000000c0: 37e6 2d3e 547f 363e 56b1 e6bc 02d7 713d
000000d0: b0b7 a93d 2a29 4f3e c420 c63d b9a6 dfbd
000000e0: 3fa7 bdbc 2e44 6fbd f125 9bbd 17a3 98bd
000000f0: dd8f c0bd fcf5 a83d c2af 2ebb 4668 a13d
00000100: 4601 a2bd ca41 9e3d 983e f7bb b9e9 ab3d
00000110: 5b47 4d3d 5cae 45bb 9619 953d 900b e7bc
00000120: 15f5 dbbb a376 8dbc 2112 4bbd 7ce5 01bd
00000130: 1a25 903d 2ad1 7bbc f228 d4bd c407 d33c
00000140: f449 f3bd 8082 9a3d b788 d43d 81bc 24bd
00000150: 92da b83c 264e 493d 054d 083d a017 bbbd
00000160: 574d cb3d e0b9 85bd 3911 283d e53a c1bc
00000170: 00ab 94bd c789 143d ee51 0bbd b8f6 573d
00000180: 1d8a c53c fc35 1dbd 4178 c23c 2ffb d03d
00000190: 7ebc 083d a0e3 b7bd ebeb 98bd fffc 8d3d
000001a0: 72c2 a3bd dc5e 123d 602c 423d cf1a c53d
000001b0: b561 1e3e bffb bf3d 2020 cf3d a6be cb3c
000001c0: 21b4 e43c e27d d13d 9b6a 20bd 32d9 22bd
000001d0: fdef ed3c 145c 1bbd 6db6 de3d a21d 033e
000001e0: d332 1ebd a13e 39bd 199a 22bd 5a62 f43d
000001f0: a133 77bc 745c bc3c 6375 debb 5188 c63d
00000200: 7884 933d c4b5 a43d 5965 003d eaae dc3d
00000210: a81c 083d 77d2 153e 8b83 ec3c c995 b93d
00000220: f80d 5dbb fb91 473c 97f7 40bd ec20 99bd
00000230: 608f 83bd 8dc4 acbd 34cc 883d 3005 5e3d
00000240: cd76 e9bb 7f20 5d3d 6fdc 2f3d 3a17 c23d
00000250: ffaa c93d a7b3 d93d 75fe 3bbd daef c43d
00000260: 9028 e2bd cdb3 263d ef6c 88bd 068e 9c3d
00000270: ca84 d33c d833 c8bd df64 ce3c 7744 8bbd
00000280: a33c c83d 95db 09bd 1425 bdbd 6b8a 5bbd
00000290: b10d cd3d 4499 c23c de17 df3c 6cde a83d
000002a0: 6380 13bd 553e 983d c6f5 4c3d f375 063b
000002b0: c06c c73d 521c f0bb 1ad7 89bd b53b e2bd
000002c0: 3a61 9cbd 0f5a 8fbd 634e 213d 5edd 3f3d
000002d0: aedd edbc 7096 163c 3fea c83d fc30 6bbb
000002e0: 6d64 803d 5b43 1d3d 50e8 d43d b249 d13d
000002f0: 47ac 9fbd d390 5dbd 4650 80bd 4d53 44bd
00000300: 06cb b0bd d2e4 c5bd a09e 923d 63c5 443d
00000310: 323b a73d 46d3 afbc f3be 603d 696b dfbd
00000320: 55ef d03c fa78 56bc af6f d63c 24c5 d3bc
00000330: fadb 373d 5f5b ecbc ddf6 19bd 3b04 36bc
00000340: 30e3 92bc 4edf 8abd 171d d93d 604e a33d
00000350: 226c 933d 4074 50bd 1096 9f3d f5fc a0bd
00000360: b1a4 a53d 639d 4abc 7eaa 94bc c81d 73bd
00000370: d466 0d3b 808b 09ba e9b2 90bb 3109 843d
00000380: b7ac bfbd dc8d 94bd 346d 50bd df5b c5bd
00000390: 18d8 77bd 0747 983d 96a7 e53c 8bb7 93bd
000003a0: 2d44 cebd fafd 953d 91ec e1bd b745 8d3d
000003b0: 58c7 9b3d c9b9 b5bd dbef ef3c a978 1bbd
000003c0: c822 0cbd f7ec 8b3c ce0c d1bd 5afa a5bd
000003d0: 364d 1d3d 471f e5bc 1204 b1bd 1b48 83bb
000003e0: ca0f a93a e320 2c3d c59d 863d 37c1 b5bd
000003f0: 4b6b 35bd 0b3f d73d cbb9 bdbd ab22 d03d
0.084661305 0.025660466 0.07189503 0.07055878 0.060744364 0.064920574 -0.095029704 0.027619075
-0.018739728 0.034258902 -0.051412914 0.11300037 -0.031975836 0.05179639 0.0959964 -0.09303791
-0.03999046 -0.089998774 0.069361985 -0.09929 0.046226233 -0.059517995 -0.14191566 -0.09711397
-0.043654326 0.06867794 -0.13252977 -0.12600183 0.00729589 -0.11964086 -0.090029515 -0.009357763
-0.11699681 -0.11678915 0.04938759 -0.08382831 0.014738702 -0.064598985 0.056802608 0.007897247
0.084426336 0.041382063 0.108795546 0.11092456 -0.054964233 0.0741384 0.14289628 0.21061109
0.16982351 0.1782201 -0.028160732 0.059042938 0.08286989 0.20230547 0.09674218 -0.10920472
-0.023151038 -0.05841463 -0.07575596 -0.07452982 -0.0940244 0.08250043 -0.0026655053 0.07881217
-0.07910399 0.07727392 -0.0075453036 0.083941884 0.050116878 -0.003016374 0.07280271 -0.028203756
-0.0067125657 -0.017268484 -0.049577836 -0.031712994 0.070383266 -0.015369693 -0.10359372 0.025760539
-0.1187934 0.07544422 0.10377639 -0.040218834 0.02256516 0.049146794 0.033276577 -0.091353655
0.09926861 -0.065295935 0.04103205 -0.023587653 -0.07259178 0.036264207 -0.03401368 0.052725524
0.02411371 -0.03838156 0.023738982 0.102041595 0.033382885 -0.08978963 -0.07466873 0.06933021
-0.07996072 0.035734996 0.0474056 0.09624254 0.1546696 0.09374189 0.10113549 0.024871182
0.027917923 0.10229088 -0.039164167 -0.039757915 0.0290451 -0.03792961 0.10874639 0.12804273
-0.03862269 -0.045225743 -0.03969774 0.119328216 -0.015087993 0.022993304 -0.006788896 0.09693969
0.07203001 0.080424815 0.031346653 0.1077555 0.033230454 0.14631067 0.028871318 0.090617724
-0.003373025 0.012180801 -0.04711112 -0.074769825 -0.06423831 -0.084359266 0.06679574 0.054204166
-0.007124758 0.05398607 0.04293483 0.09477086 0.09847068 0.10629969 -0.045896966 0.096160606
-0.11042893 0.040698815 -0.066614024 0.07644276 0.025820155 -0.097755134 0.025194583 -0.06800168
0.097771905 -0.033656675 -0.09235588 -0.053598803 0.10012377 0.023754723 0.02723306 0.082455486
-0.03601111 0.07433764 0.050039075 0.002051708 0.09737539 -0.007327595 -0.067304805 -0.110465445
-0.07635732 -0.06999599 0.039381396 0.04684197 -0.02903637 0.0091911405 0.09810304 -0.0035887351
0.06269155 0.038394313 0.103958726 0.102191344 -0.07796531 -0.054093193 -0.06265311 -0.047931004
-0.08632474 -0.09662785 0.071591616 0.048039805 0.081655875 -0.021463048 0.054869603 -0.10909159
0.025504747 -0.0130903665 0.026176302 -0.02585084 0.04488752 -0.028852163 -0.037588943 -0.011109407
-0.017930597 -0.06780873 0.106012516 0.07973933 0.07198359 -0.050892115 0.07792294 -0.07860748
0.08088053 -0.0123666255 -0.018147703 -0.059354573 0.0021576183 -0.00052469224 -0.004415859 0.064470656
-0.093591146 -0.0725362 -0.050885394 -0.09636664 -0.060508817 0.074354224 0.028034013 -0.072127424
-0.10071597 0.07323833 -0.110314496 0.06898063 0.07606381 -0.08873326 0.029289177 -0.037956867
-0.034212857 0.017080767 -0.102075204 -0.081043914 0.038403712 -0.027969016 -0.086433545 -0.0040063984
0.0012898382 0.04202355 0.06573061 -0.088747434 -0.044291776 0.10510071 -0.09263953 0.101628624

conv5.bias f4 [16]
00000000: 8062 963c 955a 1dbd eed4 283d 3212 09bd
00000010: 0c52 df3d 1f50 8ebd ab56 ea3d 7e36 743d
00000020: 339e 29bd 07d5 1cbd 40c9 083d 8946 923d
00000030: 89c5 503c d25f 923d 51ba e73d 5807 a43d
0.018357515 -0.038416464 0.04121869 -0.033464618 0.10904321 -0.06948876 0.11442312 0.05962228
-0.041410636 -0.038289096 0.033395052 0.0714236 0.012742409 0.071471825 0.11314834 0.08009213

conv6.weight f4 [16, 16, 3, 3]
00000000: 2b6b 35ba b950 813d 018b 643d 5ead c73d
00000010: 2528 453c 51af ab3d adb6 d33d b102 fdbc
00000020: d0d2 203d b8c5 353d a539 95bd 31ef 15bd
00000030: 1cf1 433d 2d01 a03d c51b 4f3d c10c 763d
00000040: ea5d d83c 32eb a33d 1de7 0e3b 022e 4c3d
00000050: b817 84bd 576f 8d3c c1ff 2b3d 00ce df3d
00000060: c5d6 08bd 1617 a93c da57 bebd fd75 be3a
00000070: 3eb1 893d 0f6e b73c 0288 73bd 0040 9b3a
00000080: ecb9 b63d dad7 783d be16 73bd 47bd 1ebd
00000090: dbeb abbd be64 d93d d671 1f3c b9a7 5fbd
000000a0: 533f 8bbd b08a cabd 77ab 00bd 2a5a 8ebc
000000b0: 1937 83bd 400c 86bd b296 adbd 93b3 803d
000000c0: 958e a7bd e9f9 973c 0a23 e03d 7146 813d
000000d0: dc19 52bc 55ac b63d e103 7b3d 9f98 a7bd
000000e0: 4a2b 6a3d 92ea 30bc 9346 b73d abcb 1b3d
000000f0: bb33 6f3d b735 03bd 11d6 523c 2c1e 9ebd
00000100: 11f1 d83d f510 8f3d 1bf6 c63d dce4 b73d
00000110: 573d e23d 7e14 ac3c ec48 93bd 405a bc3d
00000120: 6f42 bbbd e90b a83d 4bd4 aabd 1964 5dbd
00000130: c089 18bd b441 bfbd 292d 6a3d c58e c43d
00000140: 07eb 06bd 0ef1 8cbc b2d9 723d 7090 963d
00000150: 077d 423d 60a8 50bc 29d1 67bd 0abb 30bc
00000160: 3495 20bd 37ea 67bc b233 db3c 11a1 d9bd
00000170: 0c2f 263d aa7b c2bd 15e9 39bd b3ce d83d
00000180: 3f67 20bd ed37 9cbd 7e94 66bd 5e45 513c
00000190: 02bd 8f3d 14f0 dcbc 6b78 8b3d b652 b6bd
000001a0: 3f7e c3bd 9dec 973d 372d 473c ae2a ef3d
000001b0: 45c2 d63d 734f 673b 7ba4 d43d d341 813c
000001c0: 9237 6fbd f760 9abd 8d98 ae3c 6e4a 97bd
000001d0: d3e7 acbc d0d2 3fbd e9fc c13d 59c3 89bc
000001e0: 1dce a03d 9cf5 e1bb fad3 b3bd c18d 9d3c
000001f0: a28c b03d 7dd7 e83d e23a 95bc 5b1f cdbc
00000200: f39b 763d 6b6e e93d 670e 26bd f172 9f3d
00000210: 4884 f4bc 7588 bc3d c22b cabd 59d1 8fbb
00000220: bb62 b33d c102 033d 1552 353d 461f 5ebd
00000230: f1c6 1e3c fb16 c13d dfee ccbb 1f96 b83d
00000240: 2991 78bd 13d5 233c 6be9 bbbd eed5 e6bb
00000250: 5b3c 6a3d 8cb2 ba3d 932a aa3d ea28 003c
00000260: d513 553d a745 82bc 786e c73c 191b fe39
00000270: 2c3d 873d 98bb c33d 7b2b c93d 8206 333d
00000280: 0304 de3c 8e5d 7bbd cde5 ddbd ae04 b53d
00000290: 9280 3ebc 8598 c5bd f961 d23d 8ab7 f0bc
000002a0: 36be d4bd 4ad9 283c a6f9 1dbc b944 243d
000002b0: 16b1 16bd a3b3 98bd 7c69 2d3d 71d0 a53d
000002c0: acb0 bf3d 4cb0 ccbd 087f 1e3c 0c76 31bd
000002d0: c770 cd3c e4f7 adbb 0092 383d 5b67 383d
000002e0: f087 9abd b431 a93d 79ee dd3d 06f5 be3b
000002f0: 063d aebd 6620 51bc 1c7f 693b 38cd debb
00000300: 99fc 8dbd 5ec4 663d 765b 813d 492d 9d3d
00000310: d067 7e3d 75e6 623d a171 d53d 46f6 12bd
00000320: 2a19 debb 2705 44bd 34e8 54bd 8106 a63d
00000330: e64d 85bd 0713 933d f974 c1bd aebc 853d
00000340: 19ce b73d 961f c2bd 9e2f d43d 0222 a5bd
00000350: 50d9 31bd 95ad 633d 2665 ddbd 0388 f2bb
00000360: 24b4 b13d 3fca 3c3b a598 bfbd 882a b43c
00000370: b36b a7bd dc9d 5e3d 55f4 9f3d 2434 dbbd
00000380: d28c c53d 3c99 49bd c4b2 5e39 9f6d d53d
00000390: f8bc 00bd 1520 283d 8c55 9f3d 57bc 61bd
000003a0: f75a e53d c749 b4bd 115b b33d ab10 a33d
000003b0: e783 c9bd 13c1 e73c b165 5f3d 61f6 c63d
000003c0: 2a19 7b3c e21a 5fbc af57 42bc 933d 9ebd
000003d0: b22f 91bc 0f3d c6bc d4ef e5bd 6f9b b83d
000003e0: 4184 c1bc a82c 713c de71 afbd 2903 463d
000003f0: 8ba8 10ba f2c1 a43d 6e5a 753d 5ce8 5dbd
-0.00069205713 0.06314225 0.055796627 0.09749864 0.012033497 0.08383048 0.10337577 -0.030885072
0.039263546 0.044378012 -0.072863854 -0.036605064 0.04783736 0.07812724 0.050563592 0.060070757
0.02641197 0.08003844 0.0021805235 0.049848564 -0.064498365 0.017265005 0.041991953 0.10927963
-0.033407945 0.020640891 -0.092941 0.0014531013 0.067232594 0.022391347 -0.05945588 0.0011844635
0.089221805 0.060752727 -0.05934786 -0.038754728 -0.08394595 0.10614918 0.00973173 -0.054603312
-0.067991875 -0.09889734 -0.03141352 -0.017376978 -0.064069934 -0.06545305 -0.084760085 0.06284251
-0.08181492 0.018551784 0.10944183 0.06312264 -0.012823548 0.089195885 0.061282996 -0.08183407
0.05717019 -0.010798113 0.08949008 0.03803603 0.058398943 -0.03203365 0.01286842 -0.077205986
0.10592855 0.06985656 0.0971491 0.08979198 0.11046856 0.021005865 -0.07191643 0.09196901
-0.091435306 0.08205397 -0.08341273 -0.05405054 -0.037240744 -0.09338704 0.057171974 0.095975436
-0.032938983 -0.017204788 0.05928964 0.07351768 0.047482517 -0.012735456 -0.056595955 -0.010786781
-0.03920479 -0.014154962 0.026758049 -0.10626424 0.04057221 -0.09496243 -0.0453883 0.105863
-0.039160963 -0.076278545 -0.056293957 0.012772886 0.07018472 -0.026969947 0.06810077 -0.089024946
-0.09545564 0.07418177 0.012156776 0.116780624 0.10486273 0.0035295158 0.10382935 0.015778458
-0.058402605 -0.07538026 0.021312976 -0.07387243 -0.021106636 -0.046831906 0.09472067 -0.016816782
0.07851813 -0.006895734 -0.08780666 0.019232633 0.086205736 0.11369226 -0.018216554 -0.025039366
0.06020732 0.11398014 -0.04054108 0.07785595 -0.029848233 0.092057146 -0.098716274 -0.00438897
0.08759066 0.03198505 0.044267733 -0.054229043 0.009690986 0.09428211 -0.0062540616 0.09013008
-0.06068531 0.009999531 -0.0917538 -0.0070445454 0.057186466 0.09116086 0.08308902 0.007822255
0.052020866 -0.015902353 0.024344668 0.00048466845 0.066034645 0.09557265 0.09822746 0.04370738
0.027101522 -0.061368518 -0.10834847 0.08838783 -0.011627333 -0.096482314 0.10272593 -0.029384393
-0.10387842 0.010305712 -0.00964204 0.0401046 -0.036789976 -0.07456138 0.042336926 0.08096398
0.09359869 -0.099945635 0.009673841 -0.04332547 0.02507819 -0.005309092 0.04506111 0.045020442
-0.07545459 0.08261433 0.10836501 0.005827549 -0.08507733 -0.012764072 0.0035628742 -0.0067993663
-0.06932945 0.056339614 0.06316273 0.07674653 0.062110722 0.055395562 0.104220636 -0.035879396
-0.006777902 -0.047856476 -0.05197926 0.08106709 -0.065089986 0.071813636 -0.09446139 0.065301284
0.08974857 -0.09478681 0.10360645 -0.08063127 -0.043420136 0.055585463 -0.10810308 -0.0074014678
0.08676937 0.0028807072 -0.093552865 0.021992937 -0.08174839 0.054349765 0.078102745 -0.107033044
0.09646 -0.0492184 0.00021238165 0.10421299 -0.031430215 0.04104622 0.07779989 -0.055111255
0.11198991 -0.088031344 0.08757604 0.079621635 -0.098396115 0.028290307 0.05454034 0.09714962
0.015325824 -0.013617249 -0.011861726 -0.07726588 -0.017722938 -0.024199037 -0.11227384 0.090140216
-0.023622634 0.01472012 -0.0856664 0.048342858 -0.0005518279 0.08044805 0.059900694 -0.054176673

conv6.bias f4 [16]
00000000: 5e7d bb3d 1246 62bd 218a c93d 2ec0 c4bd
00000010: 9679 6d3c 0e02 a2bc b515 02bc 1702 8cbc
00000020: 540b 96bc 0aa7 273e 0273 76bc f015 863d
00000030: 3fcc 763e 3259 49bd 4303 113d aaf3 48bc
0.09154771 -0.055242606 0.09840799 -0.09606968 0.01449432 -0.01977637 -0.007939746 -0.01709084
-0.018315949 0.16372314 -0.015042068 0.06547153 0.24101351 -0.04915733 0.0354035 -0.012265125
